…
      "2022-05-06 12:10:41.423995: I tensorflow/core/platform/cpu_feature_guard.cc:151] This TensorFlow binary is optimized with oneAPI Deep Neural Network Library (oneDNN) to use the following CPU instructions in performance-critical operations:  AVX2 AVX512F FMA\n",
      "To enable them in other operations, rebuild TensorFlow with the appropriate compiler flags.\n"
     ]
    },
    {
     "name": "stdout",
     "output_type": "stream",
     "text": [
      "Model: \"sequential\"\n",
      "_________________________________________________________________\n",
      " Layer (type)                Output Shape              Param #   \n",
      "=================================================================\n",
      " conv2d (Conv2D)             (None, 160, 160, 32)      320       \n",
      "                                                                 \n",
      " batch_normalization (BatchN  (None, 160, 160, 32)     128       \n",
      " ormalization)                                                   \n",
      "                                                                 \n",
      " max_pooling2d (MaxPooling2D  (None, 80, 80, 32)       0         \n",
      " )                                                               \n",
      "                                                                 \n",
      " conv2d_1 (Conv2D)           (None, 80, 80, 64)        18496     \n",
      "                                                                 \n",
      " dropout (Dropout)           (None, 80, 80, 64)        0         \n",
      "                                                                 \n",
      " batch_normalization_1 (Batc  (None, 80, 80, 64)       256       \n",
      " hNormalization)                                                 \n",
      "                                                                 \n",
      " max_pooling2d_1 (MaxPooling  (None, 40, 40, 64)       0         \n",
      " 2D)                                                             \n",
      "                                                                 \n",
      " conv2d_2 (Conv2D)           (None, 40, 40, 64)        36928     \n",
      "                                                                 \n",
      " batch_normalization_2 (Batc  (None, 40, 40, 64)       256       \n",
      " hNormalization)                                                 \n",
      "                                                                 \n",
      " max_pooling2d_2 (MaxPooling  (None, 20, 20, 64)       0         \n",
      " 2D)                                                             \n",
      "                                                                 \n",
      " conv2d_3 (Conv2D)           (None, 20, 20, 128)       73856     \n",
      "                                                                 \n",
      " dropout_1 (Dropout)         (None, 20, 20, 128)       0         \n",
      "                                                                 \n",
      "=================================================================\n",
      "Total params: 130,240\n",
      "Trainable params: 129,920\n",
      "Non-trainable params: 320\n",
      "_________________________________________________________________\n"
     ]
    }
   ],
   "source": [
    "model = Sequential()\n",
    "model.add(Conv2D(32 , (3,3) , strides = 1 , padding = 'same' , activation = 'relu' , input_shape = (160,160,1))) #specify input shape once\n",
    "model.add(BatchNormalization())\n",
    "model.add(MaxPool2D((2,2) , strides = 2 , padding = 'same'))\n",
    "model.add(Conv2D(64 , (3,3) , strides = 1 , padding = 'same' , activation = 'relu'))\n",
    "model.add(Dropout(0.1))\n",
    "model.add(BatchNormalization())\n",
    "model.add(MaxPool2D((2,2) , strides = 2 , padding = 'same'))\n",
    "model.add(Conv2D(64 , (3,3) , strides = 1 , padding = 'same' , activation = 'relu'))\n",
    "model.add(BatchNormalization())\n",
    "model.add(MaxPool2D((2,2) , strides = 2 , padding = 'same'))\n",
    "model.add(Conv2D(128 , (3,3) , strides = 1 , padding = 'same' , activation = 'relu'))\n",
    "model.add(Dropout(0.2))\n",
    "model.summary()"
   ]
  },
  {
   "cell_type": "code",
   "execution_count": 21,
   "id": "dca92ce6",
   "metadata": {
    "collapsed": true
   },
   "outputs": [
    {
     "name": "stdout",
     "output_type": "stream",
     "text": [
      "Model: \"sequential\"\n",
      "_________________________________________________________________\n",
      " Layer (type)                Output Shape              Param #   \n",
      "=================================================================\n",
      " conv2d (Conv2D)             (None, 160, 160, 32)      320       \n",
      "                                                                 \n",
      " batch_normalization (BatchN  (None, 160, 160, 32)     128       \n",
      " ormalization)                                                   \n",
      "                                                                 \n",
      " max_pooling2d (MaxPooling2D  (None, 80, 80, 32)       0         \n",
      " )                                                               \n",
      "                                                                 \n",
      " conv2d_1 (Conv2D)           (None, 80, 80, 64)        18496     \n",
      "                                                                 \n",
      " dropout (Dropout)           (None, 80, 80, 64)        0         \n",
      "                                                                 \n",
      " batch_normalization_1 (Batc  (None, 80, 80, 64)       256       \n",
      " hNormalization)                                                 \n",
      "                                                                 \n",
      " max_pooling2d_1 (MaxPooling  (None, 40, 40, 64)       0         \n",
      " 2D)                                                             \n",
      "                                                                 \n",
      " conv2d_2 (Conv2D)           (None, 40, 40, 64)        36928     \n",
      "                                                                 \n",
      " batch_normalization_2 (Batc  (None, 40, 40, 64)       256       \n",
      " hNormalization)                                                 \n",
      "                                                                 \n",
      " max_pooling2d_2 (MaxPooling  (None, 20, 20, 64)       0         \n",
      " 2D)                                                             \n",
      "                                                                 \n",
      " conv2d_3 (Conv2D)           (None, 20, 20, 128)       73856     \n",
      "                                                                 \n",
      " dropout_1 (Dropout)         (None, 20, 20, 128)       0         \n",
      "                                                                 \n",
      " batch_normalization_3 (Batc  (None, 20, 20, 128)      512       \n",
      " hNormalization)                                                 \n",
      "                                                                 \n",
      " max_pooling2d_3 (MaxPooling  (None, 10, 10, 128)      0         \n",
      " 2D)                                                             \n",
      "                                                                 \n",
      " conv2d_4 (Conv2D)           (None, 10, 10, 256)       295168    \n",
      "                                                                 \n",
      " dropout_2 (Dropout)         (None, 10, 10, 256)       0         \n",
      "                                                                 \n",
      " batch_normalization_4 (Batc  (None, 10, 10, 256)      1024      \n",
      " hNormalization)                                                 \n",
      "                                                                 \n",
      " max_pooling2d_4 (MaxPooling  (None, 5, 5, 256)        0         \n",
      " 2D)                                                             \n",
      "                                                                 \n",
      "=================================================================\n",
      "Total params: 426,944\n",
      "Trainable params: 425,856\n",
      "Non-trainable params: 1,088\n",
      "_________________________________________________________________\n"
     ]
    }
   ],
   "source": [
    "model.add(BatchNormalization())\n",
    "model.add(MaxPool2D((2,2) , strides = 2 , padding = 'same'))\n",
    "model.add(Conv2D(256 , (3,3) , strides = 1 , padding = 'same' , activation = 'relu'))\n",
    "model.add(Dropout(0.2))\n",
    "model.add(BatchNormalization())\n",
    "model.add(MaxPool2D((2,2) , strides = 2 , padding = 'same'))\n",
    "model.summary()"
   ]
  },
  {
   "cell_type": "code",
   "execution_count": 22,
   "id": "cf2b7004",
   "metadata": {
    "collapsed": true
   },
   "outputs": [
    {
     "name": "stdout",
     "output_type": "stream",
     "text": [
      "Model: \"sequential\"\n",
      "_________________________________________________________________\n",
      " Layer (type)                Output Shape              Param #   \n",
      "=================================================================\n",
      " conv2d (Conv2D)             (None, 160, 160, 32)      320       \n",
      "                                                                 \n",
      " batch_normalization (BatchN  (None, 160, 160, 32)     128       \n",
      " ormalization)                                                   \n",
      "                                                                 \n",
      " max_pooling2d (MaxPooling2D  (None, 80, 80, 32)       0         \n",
      " )                                                               \n",
      "                                                                 \n",
      " conv2d_1 (Conv2D)           (None, 80, 80, 64)        18496     \n",
      "                                                                 \n",
      " dropout (Dropout)           (None, 80, 80, 64)        0         \n",
      "                                                                 \n",
      " batch_normalization_1 (Batc  (None, 80, 80, 64)       256       \n",
      " hNormalization)                                                 \n",
      "                                                                 \n",
      " max_pooling2d_1 (MaxPooling  (None, 40, 40, 64)       0         \n",
      " 2D)                                                             \n",
      "                                                                 \n",
      " conv2d_2 (Conv2D)           (None, 40, 40, 64)        36928     \n",
      "                                                                 \n",
      " batch_normalization_2 (Batc  (None, 40, 40, 64)       256       \n",
      " hNormalization)                                                 \n",
      "                                                                 \n",
      " max_pooling2d_2 (MaxPooling  (None, 20, 20, 64)       0         \n",
      " 2D)                                                             \n",
      "                                                                 \n",
      " conv2d_3 (Conv2D)           (None, 20, 20, 128)       73856     \n",
      "                                                                 \n",
      " dropout_1 (Dropout)         (None, 20, 20, 128)       0         \n",
      "                                                                 \n",
      " batch_normalization_3 (Batc  (None, 20, 20, 128)      512       \n",
      " hNormalization)                                                 \n",
      "                                                                 \n",
      " max_pooling2d_3 (MaxPooling  (None, 10, 10, 128)      0         \n",
      " 2D)                                                             \n",
      "                                                                 \n",
      " conv2d_4 (Conv2D)           (None, 10, 10, 256)       295168    \n",
      "                                                                 \n",
      " dropout_2 (Dropout)         (None, 10, 10, 256)       0         \n",
      "                                                                 \n",
      " batch_normalization_4 (Batc  (None, 10, 10, 256)      1024      \n",
      " hNormalization)                                                 \n",
      "                                                                 \n",
      " max_pooling2d_4 (MaxPooling  (None, 5, 5, 256)        0         \n",
      " 2D)                                                             \n",
      "                                                                 \n",
      " flatten (Flatten)           (None, 6400)              0         \n",
      "                                                                 \n",
      " dense (Dense)               (None, 128)               819328    \n",
      "                                                                 \n",
      " dropout_3 (Dropout)         (None, 128)               0         \n",
      "                                                                 \n",
      " dense_1 (Dense)             (None, 1)                 129       \n",
      "                                                                 \n",
      "=================================================================\n",
      "Total params: 1,246,401\n",
      "Trainable params: 1,245,313\n",
      "Non-trainable params: 1,088\n",
      "_________________________________________________________________\n"
     ]
    }
   ],
   "source": [
    "model.add(Flatten()) #flatten 2D nodes of CNN\n",
…
